…
ale=0.5, seed=0, shear=0.0, show=False, show_boxes=True, show_conf=True, show_labels=True, simplify=True, single_cls=False, source=None, split=val, stream_buffer=False, task=detect, time=None, tracker=botsort.yaml, translate=0.1, val=True, verbose=True, vid_stride=1, visualize=False, warmup_bias_lr=0.1, warmup_epochs=3.0, warmup_momentum=0.8, weight_decay=0.0005, workers=0, workspace=None
Overriding model.yaml nc=80 with nc=30

                   from  n    params  module                                       arguments                     
  0                  -1  1      5280  ultralytics.nn.modules.conv.Conv             [3, 48, 6, 2, 2]              
  1                  -1  1     41664  ultralytics.nn.modules.conv.Conv             [48, 96, 3, 2]                
  2                  -1  2     65280  ultralytics.nn.modules.block.C3              [96, 96, 2]                   
  3                  -1  1    166272  ultralytics.nn.modules.conv.Conv             [96, 192, 3, 2]               
  4                  -1  4    444672  ultralytics.nn.modules.block.C3              [192, 192, 4]                 
  5                  -1  1    664320  ultralytics.nn.modules.conv.Conv             [192, 384, 3, 2]              
  6                  -1  6   2512896  ultralytics.nn.modules.block.C3              [384, 384, 6]                 
  7                  -1  1   2655744  ultralytics.nn.modules.conv.Conv             [384, 768, 3, 2]              
  8                  -1  2   4134912  ultralytics.nn.modules.block.C3              [768, 768, 2]                 
  9                  -1  1   1476864  ultralytics.nn.modules.block.SPPF            [768, 768, 5]                 
 10                  -1  1    295680  ultralytics.nn.modules.conv.Conv             [768, 384, 1, 1]              
 11                  -1  1         0  torch.nn.modules.upsampling.Upsample         [None, 2, 'nearest']          
 12             [-1, 6]  1         0  ultralytics.nn.modules.conv.Concat           [1]                           
 13                  -1  2   1182720  ultralytics.nn.modules.block.C3              [768, 384, 2, False]          
 14                  -1  1     74112  ultralytics.nn.modules.conv.Conv             [384, 192, 1, 1]              
 15                  -1  1         0  torch.nn.modules.upsampling.Upsample         [None, 2, 'nearest']          
 16             [-1, 4]  1         0  ultralytics.nn.modules.conv.Concat           [1]                           
 17                  -1  2    296448  ultralytics.nn.modules.block.C3              [384, 192, 2, False]          
 18                  -1  1    332160  ultralytics.nn.modules.conv.Conv             [192, 192, 3, 2]              
 19            [-1, 14]  1         0  ultralytics.nn.modules.conv.Concat           [1]                           
 20                  -1  2   1035264  ultralytics.nn.modules.block.C3              [384, 384, 2, False]          
 21                  -1  1   1327872  ultralytics.nn.modules.conv.Conv             [384, 384, 3, 2]              
 22            [-1, 10]  1         0  ultralytics.nn.modules.conv.Concat           [1]                           
 23                  -1  2   4134912  ultralytics.nn.modules.block.C3              [768, 768, 2, False]          
 24        [17, 20, 23]  1   4235434  ultralytics.nn.modules.head.Detect           [30, [192, 384, 768]]         
YOLOv5m summary: 197 layers, 25,082,506 parameters, 25,082,490 gradients

Freezing layer 'model.24.dfl.conv.weight'
[34m[1mAMP: [0mrunning Automatic Mixed Precision (AMP) checks...
[34m[1mAMP: [0mchecks passed 
[34m[1mtrain: [0mFast image access  (ping: 0.10.0 ms, read: 303.886.9 MB/s, size: 43.0 KB)
[34m[1mtrain: [0mScanning C:\Users\R9000P\Deskto
…
